FluxDecode/simple_decoder_step_50000.pth (torch, 194748 bytes, 6 tensors)

conv1.weight f4 [64, 16, 3, 3]
-0.04036448 -0.06099242 0.011239127 0.048816945 -0.058389537 -0.02045178 -0.04258085 -0.048823047
0.06322088 0.04227523 -0.0130376015 -0.03379432 -0.06263438 0.015472803 -0.025810847 -0.006731775
-0.015836889 0.07319054 0.03332941 0.039104167 -0.042549074 0.056929167 0.025145676 0.06676459
-0.057716828 0.029350474 -0.02653058 -0.020589218 -0.061500855 -0.031547055 0.02235512 0.05897301
-0.07503837 -0.069436304 0.053554486 -0.047566406 -0.00974794 -0.0630883 -0.057217836 0.047015637
0.01972339 0.012769828 -0.04868834 0.04901195 -0.032540694 0.03967808 -0.033038996 -0.064434275
0.073592804 -0.047930323 -0.038471833 -0.04661817 0.074327946 -0.06768918 0.019491255 0.06154048
0.053812116 0.006294147 0.06693895 -0.06510311 -0.02372487 -0.053418256 0.003337912 -0.043347973
-0.0863695 -0.062256623 -0.04619806 -0.06341098 0.04628004 -0.00072247133 0.046068273 0.025263647
0.042522993 0.031945787 -0.046446685 0.078903325 -0.061552405 -0.07460426 0.007629532 -0.04907486
0.020568242 0.0053888825 0.07722546 0.05836305 -0.075524 -0.06775488 -0.05611706 0.05408589
-0.06435255 -0.026230749 0.010292514 0.07916591 -0.013777198 0.0018185524 0.03484838 -0.022789506
0.035409883 0.065867186 0.0773615 0.04409207 0.057846025 -0.04869458 -0.07763708 0.011043655
-0.02824875 0.023572918 0.060996775 -0.05237525 0.05928193 0.005752566 0.0625625 0.004710728
0.08004231 -0.049411148 0.014792654 0.039408937 0.042767353 0.06272214 -0.049992077 -0.057950426
0.04713897 -0.07565232 -0.082895346 0.06778961 0.0014990339 0.023655433 -0.05428224 -0.056351546
-0.028051617 -0.0751957 0.031376872 -0.07495984 -0.075018466 -0.056399554 0.058721643 -0.06098988
0.0319364 0.013518067 -0.061488297 -0.04396144 -0.04454081 -0.06013059 -0.0018873821 -0.057442702
-0.016695673 0.08042925 0.042585675 0.04370576 -0.03360345 0.053973906 0.06903527 -0.0077794525
-0.008078587 0.016166374 0.03179614 0.048577204 0.02797585 0.03719465 0.015916048 -0.019655023
0.01562912 0.03780809 -0.05395953 0.036101323 0.051532965 0.0320366 0.05704114 -0.07336633
-0.03660576 -0.011471848 0.04829862 0.06192449 -0.08729031 0.03610356 -0.051936317 -0.032811422
0.011134078 -0.019263387 0.04688396 0.0031857793 0.021865588 0.022694381 -0.023514105 -0.08831933
-0.031279445 0.022171982 0.046324607 -0.03539655 0.006486591 0.018718917 0.037750337 0.033438113
0.053156402 0.023139348 0.070258155 -0.06294438 0.040296618 -0.0017034315 -0.015734574 0.0778984
-0.023109347 0.07651019 0.060191963 0.046840258 -0.055008933 0.041757196 -0.05663962 -0.036931835
0.029901527 0.019051662 0.048841167 -0.07339952 -0.008903723 0.058425456 0.062464017 0.031165011
-0.030920057 -0.011397533 0.03669775 -0.03205066 -0.0501891 0.07591615 0.0316776 0.04672219
0.022434032 -0.014069159 0.013578077 -0.07148985 -0.023192693 0.00095597317 -0.055851277 -0.020885238
-0.03168866 0.0021607026 -0.009855229 0.06306959 0.05219197 0.0006363348 0.05200899 0.005045157
0.027182812 0.0005858717 0.00010089512 0.0018381955 0.020419072 0.035568457 0.04975118 0.02303679
0.0028764452 1.8000763e-05 -0.032635473 0.03167595 -0.038275264 -0.027615506 -0.04939504 0.052663963
00000000: 3a55 25bd 30d3 79bd 5124 383c 47f4 473d
00000010: de29 6fbd 7e8a a7bc 4269 2ebd adfa 47bd
00000020: f379 813d cb28 2d3d aa9b 55bc ea6b 0abd
00000030: 7446 80bd a481 7d3c 4571 d3bc 3996 dcbb
00000040: 5dbc 81bc ece4 953d 6b84 083d b12b 203d
00000050: f047 2ebd 8f2e 693d 4efe cd3c e0bb 883d
00000060: 7b68 6cbd 6870 f03c a956 d9bc b8aa a8bc
00000070: 52e8 7bbd 7c37 01bd 1622 b73c af8d 713d
00000080: b8ad 99bd 9f34 8ebd f35b 5b3d fed4 42bd
00000090: d3b5 1fbc 7034 81bd 405d 6abd 7893 403d
000000a0: f292 a13c 8a38 513c 6d6d 47bd c1c0 483d
000000b0: 6449 05bd 7b85 223d e653 07bd 1ef6 83bd
000000c0: d3b7 963d 9652 44bd a494 1dbd b2f2 3ebd
000000d0: 4039 983d a0a0 8abd 20ac 9f3c df11 7c3d
000000e0: 186a 5c3d 223f ce3b 4a17 893d c854 85bd
000000f0: a95a c2bc 1acd 5abd dfc0 5a3b a58d 31bd
00000100: 7ee2 b0bd cd00 7fbd 2d3a 3dbd 9edd 81bd
00000110: 2490 3d3d 3b64 3dba 16b2 3c3d b5f5 ce3c
00000120: 972c 2e3d 96d9 023d e13e 3ebd 1198 a13d
00000130: 601e 7cbd 1eca 98bd 2701 fa3b b802 49bd
00000140: bb7e a83c 3995 b03b 6228 9e3d 180e 6f3d
00000150: 54ac 9abd 12c3 8abd 01db 65bd 2b89 5d3d
00000160: 45cb 83bd dee1 d6bc efa1 283c bd21 a23d
00000170: c2b9 61bc 7e5c ee3a 2dbd 0e3d 0fb1 babc
00000180: f409 113d 60e5 863d b56f 9e3d e399 343d
00000190: f4ef 6c3d f873 47bd 3000 9fbd 72f0 343c
000001a0: ec69 e7bc fe1b c13c c1d7 793d 6e87 56bd
000001b0: 9cd1 723d 0580 bc3b c520 803d 735c 9a3b
000001c0: 39ed a33d 5863 4abd e35c 723c 446b 213d
000001d0: d22c 2f3d 7774 803d 7ec4 4cbd 6d5d 6dbd
000001e0: cb14 413d 9bef 9abd 09c5 a9bd 47d5 8a3d
000001f0: 3b7b c43a 0ac9 c13c 0e57 5ebd e1d0 66bd
00000200: 81cc e5bc 3400 9abd 0985 003d 8b84 99bd
00000210: 48a3 99bd 3803 67bd 1b86 703d 86d0 79bd
00000220: becf 023d e27a 5d3c 27db 7bbd e910 34bd
00000230: 6d70 36bd 7e4b 76bd 0962 f7ba 0a49 6bbd
00000240: 5dc5 88bc 17b8 a43d 516e 2e3d d004 333d
00000250: c5a3 09bd be13 5d3d 5d62 8d3d c7ea febb
00000260: 0d5c 04bc 586f 843c ab3c 023d e4f8 463d
00000270: 9c2d e53c 6b59 183d 5f62 823c 9203 a1bc
00000280: a408 803c a8dc 1a3d ab04 5dbd fbde 133d
00000290: 3b14 533d cf38 033d f8a3 693d 1641 96bd
000002a0: ecef 15bd 6bf4 3bbc c6d4 453d 89a4 7d3d
000002b0: 43c5 b2bd 54e1 133d 2dbb 54bd 4565 06bd
000002c0: b56b 363c 40ce 9dbc 6509 403d 82c8 503b
000002d0: 761f b33c 91e9 b93c a7a0 c0bc c4e0 b4bd
000002e0: e01e 00bd 04a2 b53c dfbe 3d3d f9fb 10bd
000002f0: 788d d43b 6a58 993c 19a0 1a3d 67f6 083d
00000300: 87ba 593d bb8e bd3c 82e3 8f3d fce8 80bd
00000310: 110e 253d ad45 dfba cbe5 80bc 3289 9f3d
00000320: d04f bdbc 60b1 9c3d d98b 763d 92db 3f3d
00000330: 0c51 61bd 9809 2b3d f2fe 67bd d645 17bd
00000340: 0cf4 f43c 3b12 9c3c ad0d 483d 7d52 96bd
00000350: ece0 11bc 884f 6f3d 45da 7f3d c44d ff3c
00000360: 0f4c fdbc b8bc 3abc 6150 163d 8e47 03bd
00000370: 1693 4dbd ed79 9b3d 5fc0 013d c45f 3f3d
00000380: 93c7 b73c 5482 66bc 9576 5e3c 4569 92bd
00000390: 9afe bdbc 469a 7a3a 4fc4 64bd 8517 abbc
000003a0: f8cb 01bd 939a 0d3b d477 21bc a12a 813d
000003b0: 3fc7 553d b5cf 263a 6107 553d d851 a53b
000003c0: 7dae de3c 2f95 193a a897 d338 9bef f03a
000003d0: e645 a73c 3bb0 113d e5c7 4b3d a6b7 bc3c
000003e0: be82 3c3b 5800 9737 c6ac 05bd a4be 013d
000003f0: 86c6 1cbd ea39 e2bc 7452 4abd 2bb6 573d

conv1.bias f4 [64]
0.16631469 0.111329116 0.06381541 0.0854676 0.0010431345 -0.117300466 0.059700377 0.13628535
-0.05826686 0.15450384 0.048449643 -0.08317716 0.1854801 0.11057918 0.09301866 0.17295754
0.015323724 0.11954116 -0.16360298 0.02480848 0.1697286 0.17691857 0.037706573 0.06495588
0.026581075 0.06055357 -0.06659218 0.07830774 0.131842 0.1244907 0.048128232 -0.019979864
0.11394869 0.08716897 -0.07105041 0.077794425 0.030526958 0.055090357 -0.11532826 0.15638517
0.12130675 0.16372678 0.04196326 0.112230316 0.007290295 0.10358383 0.15688725 -0.11403101
-0.05620468 0.12588677 0.11796782 0.13164212 -0.10090393 0.1272604 0.09754915 0.08586603
0.10259824 0.021080565 -0.04783919 0.074981265 0.1282567 0.03250229 0.092301525 0.035393387
00000000: 664e 2a3e 8500 e43d a7b1 823d a309 af3d
00000010: c9b9 883a 3a3b f0bd 6288 743d 638e 0b3e
00000020: 3ba9 6ebd 4136 1e3e 2273 463d c958 aabd
00000030: 7fee 3d3e 5677 e23d 9180 be3d c81b 313e
00000040: 5b10 7b3c ffd1 f43d 8a87 27be 273b cb3c
00000050: 56cd 2d3e 242a 353e 3572 1a3d 9707 853d
00000060: 8ec0 d93c 0507 783d 7b61 88bd cf5f a03d
00000070: 9701 073e fbf4 fe3d 1c22 453d d0ac a3bc
00000080: ee5d e93d a585 b23d e182 91bd af52 9f3d
00000090: ac13 fa3c 6da6 613d 3931 ecbd 6f23 203e
000000a0: ac6f f83d fea7 273e abe1 2b3d 02d9 e53d
000000b0: 6de3 ee3b c223 d43d 0da7 203e 1789 e9bd
000000c0: e136 66bd 76e8 003e 1d99 f13d 31cd 063e
000000d0: b8a6 cebd 8d50 023e d9c7 c73d 87da af3d
000000e0: 071f d23d 26b1 ac3c 07f3 43bd c78f 993d
000000f0: b955 033e 1f21 053d 9508 bd3d a8f8 103d

conv2.weight f4 [64, 64, 3, 3]
0.018104237 0.004836075 0.024891142 0.029374333 -0.031593505 0.018327434 -0.009691699 -0.012874877
-0.011632292 -0.021963973 -0.032307055 -0.030697439 0.02506731 -0.01401302 0.00976834 0.03270044
0.030930376 0.01798018 0.0069382885 0.020404171 -0.004868387 0.03229478 -0.0013969725 -0.013677776
0.004815033 -0.008953837 -0.024846602 0.008620601 -0.0020469606 0.011215876 -0.023269275 -0.036702402
0.018865624 0.045046255 -0.013846735 -0.00893988 -0.006844952 -0.018220019 0.013780754 -0.011505338
-0.0059023276 -0.0040444704 -0.03362598 0.005052586 0.009239422 -0.028085835 0.0199891 0.01154619
0.003829373 -0.003214874 -0.030073468 -0.042128526 -0.013822323 0.019608209 0.01926246 0.022497194
-0.025772516 -0.016295364 -0.014890654 -0.032372564 0.023607036 -0.007888701 0.017951377 0.004931617
0.036463976 -0.008558983 0.035510138 0.012910182 -0.002740008 -0.03500594 -0.015772894 0.0067760395
-0.003204254 0.03596694 0.0356657 -0.022378547 0.03055401 0.0011117472 -0.050758556 -0.011747045
0.01830114 0.03936344 0.02925237 -0.02163182 0.0015283594 0.026579227 -0.0058976286 0.007169913
0.010918336 0.015322613 -0.034330443 0.028546322 -0.023022015 0.011269292 -0.031028822 0.033856507
-0.031295255 -0.01517015 0.03746829 -0.01342389 -0.019827668 0.0076483116 -0.026297403 -0.02922661
-0.03344741 0.001247221 0.010820525 -0.035462372 0.017012445 0.009575609 -0.020556115 0.048426136
-0.030747283 -0.013618507 -0.002385009 -0.016799591 -0.01991103 0.020446474 -0.006929564 0.011999021
-0.01021786 0.020422183 0.05135908 0.02176122 0.013345415 0.038948994 0.022044385 -0.010361228
-0.005789303 -0.030259699 -0.005832027 0.020673834 -0.00566422 -0.008663013 -0.0045931097 0.017625932
0.030970119 0.0021013024 0.00752083 0.011660156 -0.036587343 0.024178367 -0.028332423 -0.029834375
0.009956941 -0.039369136 -0.023074405 -0.05062217 -0.006175139 0.013745794 0.02148349 -0.017746106
-0.0009062383 -0.01189191 0.01349559 0.021229496 0.020791052 -0.00126245 0.009684715 -0.00026088406
-0.037571356 0.012344479 -0.023775458 -0.016507305 -0.038685102 0.010808324 -0.023088153 0.027602889
0.009944115 -0.026325032 0.008615519 -0.014953204 -0.013236876 -0.0089558 -0.043287687 0.024739651
-0.016533427 0.028572462 0.03392431 -0.01308671 0.03257735 0.013868199 0.00039459745 0.056236617
0.035642095 0.018414056 -0.016292606 0.018030653 0.0020870895 0.041276608 -0.019027436 0.009096641
0.004934741 -0.0028567764 0.022207672 0.0034904936 -0.032463774 -0.008198921 -0.011332886 -0.012320026
-0.0068157483 -0.011463398 -0.016534952 0.036573555 -0.039518572 -0.0144530665 -0.055441882 0.02238499
-0.017041001 0.051947184 0.015666684 0.029898927 0.038322393 0.039017644 0.021546405 0.004424992
-0.0017011 0.0062296484 0.041654475 0.01580922 -0.004435044 -0.029175386 0.005744633 0.028751193
0.049835164 -0.034758378 0.011686309 0.009631544 0.039585616 0.031239605 0.030968392 -0.0062365457
-0.03617005 0.037407745 0.012729706 -0.03791122 -0.012859299 -0.031492237 -0.03692639 0.01578844
-0.0037825946 -0.01396146 0.022813912 -0.023476413 -0.0053473813 -0.038866647 0.035642285 0.0033676885
-0.006344554 -0.018188963 -0.02847444 -0.0051249415 -0.010523646 0.0033229957 -0.0050443183 0.0031559737
00000000: 564f 943c f077 9e3b 82e8 cb3c 71a2 f03c
00000010: 3168 01bd 6a23 963c efc9 1ebc 26f1 52bc
00000020: 5e95 3ebc caed b3bc 6754 04bd 3279 fbbc
00000030: f659 cd3c de96 65bc 630b 203c e6f0 053d
00000040: b361 fd3c 2c4b 933c 955a e33b a626 a73c
00000050: fd86 9fbb 8847 043d 9e1a b7ba c018 60bc
00000060: 6dc7 9d3b 1db3 12bc 1a8b cbbc 6c3d 0d3c
00000070: 4d26 06bb cbc2 373c 359f bebc 4255 16bd
00000080: 158c 9a3c 6c82 383d 6add 62bc 9378 12bc
00000090: 9e4b e0bb 2642 95bc acc8 613c e380 3cbc
000000a0: 5068 c1bb 7a87 84bb 65bb 09bd 2a90 a53b
000000b0: f260 173c 4414 e6bc 2ec0 a33c 3b2c 3d3c
000000c0: 38f6 7a3b a3b0 52bb a25c f6bc f68e 2cbd
000000d0: 0677 62bc 65a1 a03c 4ecc 9d3c 094c b83c
000000e0: e220 d3bc db7d 85bc eef7 73bc 1899 04bd
000000f0: 8b63 c13c 9c3f 01bc c40e 933c 6799 a13b
00000100: 405b 153d fa3a 0cbc 1473 113d 3a85 533c
00000110: b591 33bb 6362 0fbd 2836 81bc 8a09 de3b
00000120: 76fe 51bb 1252 133d 3216 123d 3753 b7bc
00000130: 674c fa3c 0cb8 913a 34e8 4fbd ae76 40bc
00000140: 46ec 953c 8f3b 213d aba2 ef3c 3735 b1bc
00000150: 3b53 c83a aebc d93c e540 c1bb 97f1 ea3b
00000160: d2e2 323c b20b 7b3c 149e 0cbd fad9 e93c
00000170: aa98 bcbc d6a2 383c 2830 febc 1fad 0a3d
00000180: 742f 00bd 398c 78bc 5a78 193d e0ef 5bbc
00000190: a26d a2bc b09e fa3b a76d d7bc a56c efbc
000001a0: 2700 09bd cb79 a33a 9248 313c fe40 11bd
000001b0: af5d 8b3c 04e3 1c3c 4c65 a8bc 7c5a 463d
000001c0: bae1 fbbc 2920 5fbc d04d 1cbb 4c9f 89bc
000001d0: 751c a3bc 5d7f a73c 6511 e3bb 8b97 443c
000001e0: d068 27bc 6c4c a73c e65d 523d 9644 b23c
000001f0: baa6 5a3c fb88 1f3d 6d96 b43c 24c2 29bc
00000200: 32b4 bdbb 30e3 f7bc 971a bfbb 2c5c a93c
00000210: ec9a b9bb 4fef 0dbc cc81 96bb 4264 903c
00000220: 0cb5 fd3c 01b6 093b 4b71 f63b 3d0a 3f3c
00000230: 9cdc 15bd b611 c63c 6619 e8bc 3867 f4bc
00000240: 7022 233c 8841 21bd 8906 bdbc 3159 4fbd
00000250: d258 cabb 0a36 613c 25fe af3c 4860 91bc
00000260: 9f90 6dba 49d6 42bc 9b1c 5d3c 7be9 ad3c
00000270: ff51 aa3c cb78 a5ba a4ac 1e3c 44c7 88b9
00000280: 6ce4 19bd 7f40 4a3c c0c4 c2bc 543a 87bc
00000290: 4574 1ebd 6615 313c 5e23 bdbc 741f e23c
000002a0: a4ec 223c 98a7 d7bc 1b28 0d3c 49fe 74bc
000002b0: 7bdf 58bc 59bb 12bc 6e4e 31bd cfaa ca3c
000002c0: 1c71 87bc cc10 ea3c 38f4 0a3d a469 56bc
000002d0: d46f 053d 7137 633c f9e1 ce39 5e58 663d
000002e0: 72fd 113d 13d9 963c 1278 85bc 05b5 933c
000002f0: 8dc7 083b a911 293d 6ddf 9bbc 140a 153c
00000300: 9cb3 a13b c138 3bbb ddec b53c c4c0 643b
00000310: bcf8 04bd c454 06bc 92ad 39bc efd9 49bc
00000320: a456 dfbb fad0 3bbc 4f74 87bc 27ce 153d
00000330: 3ade 21bd 8ecc 6cbc 0717 63bd ba60 b73c
00000340: 9299 8bbc 92c6 543d 6b57 803c 98ee f43c
00000350: f1f7 1c3d f7d0 1f3d 1682 b03c 86ff 903b
00000360: 72f7 deba 1422 cc3b e29d 2a3d 5682 813c
00000370: d853 91bb 3801 efbc 793d bc3b 9f87 eb3c
00000380: f51f 4c3d cd5e 0ebd ef77 3f3c a0cd 1d3c
00000390: 8724 223d 33ea ff3c 6db1 fd3c f05b ccbb
000003a0: 0c27 14bd dd38 193d 4290 503c cc48 1bbd
000003b0: cfaf 52bc 01fe 00bd 2040 17bd c256 813c
000003c0: 68e5 77bb 9cbe 64bc 3ee4 ba3c 9b51 c0bc
000003d0: 1639 afbb a232 1fbd a5fd 113d 70b4 5c3b
000003e0: fae5 cfbb 0501 95bc 3b43 e9bc 20ef a7bb
000003f0: 5f6b 2cbc 9ec6 593b cf4a a5bb 74d4 4e3b

conv2.bias f4 [64]
0.08847458 0.1138274 0.002316501 0.0339339 0.07589835 -0.08458408 0.10833735 0.054688565
-0.0022022028 0.047460243 0.099747054 0.09641627 0.056204237 -0.044356633 -0.046311066 0.10256037
0.044170678 0.08916676 0.08660448 -0.013053054 0.08187832 0.12455752 0.0046923365 0.04029616
0.022606958 -0.10053665 0.036198292 0.08777581 0.08986472 -0.048954904 0.12128712 0.0433524
-0.09795679 0.10803903 0.11471685 -0.047762472 0.029462598 0.041912656 0.06984797 0.08546742
0.069873355 0.11596208 0.07449912 0.056694236 0.06950653 0.024748016 0.1094928 0.051670782
0.07050254 0.0742263 -0.0032180448 0.102199376 0.03860245 -0.071241334 -0.07832925 0.090283796
0.1168941 -0.0075092344 0.040676285 0.02593833 0.08781761 -0.025886621 0.033793084 0.055108625
00000000: 2932 b53d 571e e93d 70d0 173b 46fe 0a3d
00000010: 9870 9b3d 6b3a adbd f9df dd3d 1e01 603d
00000020: d552 10bb ac65 423d 2f48 cc3d e575 c53d
00000030: 6a36 663d 4daf 35bd acb0 3dbd 2c0b d23d
00000040: 50ec 343d 109d b63d b15d b13d 7adc 55bc
00000050: d2af a73d 0318 ff3d 2cc2 993b 960d 253d
00000060: 3a32 b93c 29e6 cdbd a944 143d cec3 b33d
00000070: ff0a b83d f084 48bd 6265 f83d 4992 313d
00000080: 929d c8bd 9143 dd3d abf0 ea3d 95a2 43bd
00000090: 8c5b f13c 9bac 2b3d 740c 8f3d 8b09 af3d
000000a0: c319 8f3d 877d ed3d ff92 983d 3738 683d
000000b0: 7159 8e3d 5abc ca3c c33d e03d bea4 533d
000000c0: a363 903d f503 983d d5e5 52bb e84d d13d
000000d0: 9a1d 1e3d fae6 91bd 166b a0bd b6e6 b83d
000000e0: 2d66 ef3d 0610 f6bb 2d9c 263d 9f7c d43c
000000f0: b8d9 b33d 2e10 d4bc 9e6a 0a3d 95b9 613d

conv_out.weight f4 [3, 64, 3, 3]
-0.04219565 -0.03709859 -0.032160334 0.0025314488 0.016332492 0.014309039 0.011567176 0.034569055
-0.005878718 0.035441875 0.010115829 -0.03569464 0.031127464 -0.02932863 0.003335095 -0.0350933
-0.043966677 -0.004130931 -0.009176964 0.023376115 -0.026117591 0.03253299 -0.013131921 0.0027926692
0.028041298 -0.01787744 -0.034238063 -0.037770465 0.024118211 -0.040626373 0.015637305 0.007305913
0.020088715 -0.040300764 -0.010612799 0.0067737936 0.00055346725 -0.050149366 -0.040105373 0.026797606
-0.0005104755 -0.02606107 0.017560486 0.03889872 -0.020197941 0.003954353 0.031910267 0.034454715
-0.037209593 -0.030462649 -0.01282797 0.019091014 0.039136793 0.0075131147 -0.049468447 -0.0020645815
0.026392736 0.006697304 -0.013417103 0.0039405716 -0.03780847 0.02711956 -0.0076579303 0.0033007853
-0.0061871763 -0.028696895 -0.010558061 -0.025498299 -0.021289328 -0.003343799 0.0004895846 0.035568193
-0.023191169 -0.0076548983 0.04877033 -0.05045503 0.019687273 -0.0011035787 0.0042004143 -0.011335224
0.01543125 0.022865435 0.0043793516 0.0068357084 0.01786976 -0.035945144 0.0069085485 0.027911628
0.014883082 0.0195021 -0.033932593 0.02614074 0.045130014 -0.008300129 0.0076823602 -0.024672518
-0.012488339 -0.03616783 0.022776278 -0.03946637 -0.025855104 0.023554891 -0.015661027 -0.0070631336
0.012014834 -0.01016713 -0.03564945 0.010197812 0.027825305 -0.013416025 -0.023923155 -0.011799458
0.0030614133 0.021463659 -0.010177285 -0.0427286 0.006060481 0.011770744 0.009537807 0.031546857
0.025974138 -0.028529068 -0.02072562 0.024208505 -0.032182943 -0.006973382 -0.016783124 -0.03802073
0.0144406445 -0.009824609 0.038439397 0.0105143795 0.040126108 -0.014718137 0.039676614 0.0101931365
0.035030384 -0.013874259 0.042085197 0.008072468 0.03987793 -0.042043656 0.019129006 -0.008599319
-0.024104988 -0.022531856 -0.018882375 -0.028223218 0.008783253 0.021888167 0.016438486 0.026880646
-0.025450217 0.032566257 -0.010884612 -0.005467687 0.019157927 0.01985032 0.019007323 -0.020817423
-0.010408672 0.009961671 -0.03266578 0.015888406 0.002471228 0.03660127 0.0043252255 0.03796313
-0.04239304 0.009107608 0.034175925 -0.0038321044 -0.0023388795 -0.032795552 0.0023211453 0.022462286
0.021389527 -0.016798425 -0.03362909 0.02266488 0.016299628 -0.0023735587 0.0034424958 0.02375071
0.007493277 0.028788248 -0.018915802 -0.027900841 0.00032633037 0.008037137 -0.0055910125 0.0132174995
0.036079697 0.035390154 -0.0018467034 0.03329145 0.028367944 -0.010988128 0.0385053 -0.0132225
-0.008829857 -0.009127938 0.011664894 -0.04921917 -0.016977496 -0.0048933825 0.007549474 0.012772541
-0.03189852 -0.02195805 0.018740173 -0.0005357231 -0.0040863506 -0.023970239 0.03893667 0.0078107193
0.007948801 -0.0033823808 0.02563254 0.011279375 -0.005903666 0.027112458 -0.03275873 -0.022179415
0.0064896373 0.031149497 0.0009179002 -0.021740407 -0.01918639 -0.017122287 -0.0014391618 -0.019092819
-0.029776856 -0.037291255 -0.036807604 -0.013740077 0.010231928 0.02501918 -0.040148884 -0.03188471
-0.004550992 0.04446373 -0.0086154295 -0.004388116 -0.03718127 -0.011820059 0.022048682 -0.019965118
0.010931716 0.018792592 -0.008585801 0.02303054 0.026204495 0.021321686 -0.025982289 0.012427578
00000000: 59d5 2cbd b1f4 17bd 8eba 03bd aae6 253b
00000010: b8cb 853c 7670 6a3c 4184 3d3c 4898 0d3d
00000020: 43a2 c0bb 802b 113d ddbc 253c 8b34 12bd
00000030: 06ff fe3c 9842 f0bc 9c91 5a3b febd 0fbd
00000040: 6716 34bd c35c 87bb fa5a 16bc 447f bf3c
00000050: 8ff4 d5bc 5041 053d 4527 57bc 3705 373b
00000060: ddb6 e53c b673 92bc 363d 0cbd 34b5 1abd
00000070: 8e93 c53c d767 26bd ce19 803c 7166 ef3b
00000080: 1791 a43c 6a12 25bd 4ee1 2dbc b3f6 dd3b
00000090: 8f16 113a 6c69 4dbd 8845 24bd a786 db3c
000000a0: 6ed1 05ba 067e d5bc 02db 8f3c 4454 1f3d
000000b0: 2776 a5bc 8493 813b 57b4 023d 6320 0d3d
000000c0: 1669 18bd ce8c f9bc 682c 52bc c264 9c3c
000000d0: e74d 203d 9330 f63b 6d9f 4abd ee4d 07bb
000000e0: 9435 d83c 0f75 db3b 69d3 5bbc e91f 813b
000000f0: 0edd 1abd d729 de3c 60ef fabb fd51 583b
00000100: ccbd cabb c015 ebbc b8fb 2cbc cfe1 d0bc
00000110: f566 aebc a323 5bbb 7757 003a f4af 113d
00000120: 68fb bdbc f1d5 fabb 66c3 473d efa9 4ebd
00000130: 3447 a13c f5a5 90ba a1a3 893b 60b7 39bc
00000140: 5bd3 7c3c 4b50 bb3c aa80 8f3b 14fe df3b
00000150: 9a63 923c 373b 13bd 1b61 e23b eda6 e43c
00000160: 2cd8 733c dec2 9f3c e7fc 0abd 1b25 d63c
00000170: 40da 383d 44fd 07bc 4fbc fb3b 051e cabc
00000180: e49b 4cbc b824 14bd 5195 ba3c 7da7 21bd
00000190: 15ce d3bc 30f6 c03c 8e4b 80bc dc71 e7bb
000001a0: ded9 443c 0994 26bc 2805 12bd b914 273c
000001b0: e5f1 e33c e3ce 5bbc 7efa c3bc 8452 41bc
000001c0: fea1 483b 8ed4 af3c a1be 26bc 2f04 2fbd
000001d0: 0097 c63b 14da 403c 7644 1c3c 4737 013d
000001e0: b7c7 d43c cbb5 e9bc c7c8 a9bc ea50 c63c
000001f0: 43d2 03bd f880 e4bb c37c 89bc a0bb 1bbd
00000200: 7498 6c3c 66f7 20bc a172 1d3d 8144 2c3c
00000210: 465b 243d 5724 71bc f283 223d 1d01 273c
00000220: 057c 0f3d dc50 63bc 8761 2c3d 6342 043c
00000230: 0a57 233d f835 2cbd 6fb4 9c3c 28e4 0cbc
00000240: d377 c5bc ba94 b8bc 36af 9abc 6134 e7bc
00000250: a2e7 0f3c d04e b33c 01aa 863c cd34 dc3c
00000260: f97c d0bc 3264 053d 5f55 32bc 482a b3bb
00000270: 16f1 9c3c 239d a23c 3fb5 9b3c 4d89 aabc
00000280: 2289 2abc 4736 233c 8ecc 05bd 6728 823c
00000290: 53f4 213b 37eb 153d 9fba 8d3b 3a7f 1b3d
000002a0: 53a4 2dbd 1438 153c 0efc 0b3d 0b24 7bbb
000002b0: e347 19bb a154 06bd 5b1e 183b d402 b83c
000002c0: 1739 af3c da9c 89bc a8be 09bd b3ab b93c
000002d0: cc86 853c b58d 1bbb 7f9b 613b d990 c23c
000002e0: 2a8a f53b 55d5 eb3c 50f5 9abc 4e90 e4bc
000002f0: 5217 ab39 32ae 033c d034 b7bb 368e 583c
00000300: 4ec8 133d 44f5 103d 150d f2ba 9e5c 083d
00000310: e463 e83c 8d07 34bc bcb7 1d3d 2fa3 58bc
00000320: 1bab 10bc 598d 15bc 1d1e 3f3c 0a9a 49bd
00000330: 6414 8bbc ab58 a0bb 9461 f73b eb43 513c
00000340: 06a8 02bd 5ee1 b3bc fe84 993c c56f 0cba
00000350: cbe6 85bb 3c5d c4bc 0f7c 1f3d 10f1 ff3b
00000360: b03b 023c efaa 5dbb 55fb d13c 21cd 383c
00000370: 8a73 c1bb f21a de3c 052e 06bd 9bb1 b5bc
00000380: 06a7 d43b 3b2d ff3c 3d9f 703a f018 b2bc
00000390: c72c 9dbc 0a44 8cbc 42a2 bcba 8b68 9cbc
000003a0: 98ee f3bc b7be 18bd 92c3 16bd 0f1e 61bc
000003b0: d1a3 273c 06f5 cc3c 2873 24bd 8b99 02bd
000003c0: 7d20 95bb 9a1f 363d bb27 0dbc 2fca 8fbb
000003d0: 634b 18bd eca8 41bc 709f b43c e38d a3bc
000003e0: f11a 333c ecf2 993c 76ab 0cbc 8baa bc3c
000003f0: cfaa d63c d1aa ae3c cfd8 d4bc 0a9d 4b3c

conv_out.bias f4 [3]
0.0019481546 -0.037572976 -0.021788407
00000000: 3959 ff3a 1fe6 19bd 9a7d b2bc
